Model Summary:
AlexNet(
  (last_layer): Linear(in_features=1024, out_features=36, bias=True)
  (conv-way0): Sequential(
    (0): Conv2d(1, 16, kernel_size=(3, 3), stride=(1, 1), padding=same)
    (1): MaxPool2d(kernel_size=2, stride=2, padding=0, dilation=1, ceil_mode=False)
    (2): LeakyReLU(negative_slope=0.01)
    (3): BatchNorm2d(16, eps=1e-05, momentum=0.1, affine=True, track_running_stats=True)
    (4): Conv2d(16, 64, kernel_size=(3, 3), stride=(1, 1), padding=same)
    (5): MaxPool2d(kernel_size=2, stride=2, padding=0, dilation=1, ceil_mode=False)
    (6): LeakyReLU(negative_slope=0.01)
    (7): BatchNorm2d(64, eps=1e-05, momentum=0.1, affine=True, track_running_stats=True)
    (8): Conv2d(64, 256, kernel_size=(3, 3), stride=(1, 1), padding=same)
    (9): LeakyReLU(negative_slope=0.01)
    (10): BatchNorm2d(256, eps=1e-05, momentum=0.1, affine=True, track_running_stats=True)
    (11): Conv2d(256, 256, kernel_size=(3, 3), stride=(1, 1), padding=same)
    (12): LeakyReLU(negative_slope=0.01)
    (13): BatchNorm2d(256, eps=1e-05, momentum=0.1, affine=True, track_running_stats=True)
    (14): Conv2d(256, 64, kernel_size=(3, 3), stride=(1, 1), padding=same)
    (15): MaxPool2d(kernel_size=2, stride=2, padding=0, dilation=1, ceil_mode=False)
    (16): LeakyReLU(negative_slope=0.01)
    (17): BatchNorm2d(64, eps=1e-05, momentum=0.1, affine=True, track_running_stats=True)
  )
  (dense-way0): Sequential(
    (0): Dropout(p=0.5, inplace=False)
    (1): Linear(in_features=3136, out_features=1024, bias=True)
    (2): LeakyReLU(negative_slope=0.01)
    (3): BatchNorm1d(1024, eps=1e-05, momentum=0.1, affine=True, track_running_stats=True)
    (4): Dropout(p=0.5, inplace=False)
    (5): Linear(in_features=1024, out_features=1024, bias=True)
    (6): LeakyReLU(negative_slope=0.01)
    (7): BatchNorm1d(1024, eps=1e-05, momentum=0.1, affine=True, track_running_stats=True)
  )
)
Device used for training: cuda:0
Size of training set: 24000
Size of validation set: 6000
---1 EPOCHS FINISHED---
Plugin messages for epoch 1:
TRAIN: 0.07704166666666666	VAL: 0.0685
---2 EPOCHS FINISHED---
Plugin messages for epoch 2:
TRAIN: 0.3395	VAL: 0.301
---3 EPOCHS FINISHED---
Plugin messages for epoch 3:
TRAIN: 0.6973333333333334	VAL: 0.6313333333333333
…
