Model Summary:
AlexNet(
  (last_layer): Linear(in_features=1024, out_features=36, bias=True)
  (conv-way0): Sequential(
    (0): Conv2d(1, 16, kernel_size=(3, 3), stride=(1, 1), padding=same)
    (1): LeakyReLU(negative_slope=0.01)
    (2): BatchNorm2d(16, eps=1e-05, momentum=0.1, affine=True, track_running_stats=True)
    (3): Conv2d(16, 16, kernel_size=(3, 3), stride=(1, 1), padding=same)
    (4): LeakyReLU(negative_slope=0.01)
    (5): BatchNorm2d(16, eps=1e-05, momentum=0.1, affine=True, track_running_stats=True)
    (6): Conv2d(16, 16, kernel_size=(3, 3), stride=(1, 1), padding=same)
    (7): MaxPool2d(kernel_size=2, stride=2, padding=0, dilation=1, ceil_mode=False)
    (8): LeakyReLU(negative_slope=0.01)
    (9): BatchNorm2d(16, eps=1e-05, momentum=0.1, affine=True, track_running_stats=True)
    (10): Conv2d(16, 64, kernel_size=(3, 3), stride=(1, 1), padding=same)
    (11): LeakyReLU(negative_slope=0.01)
    (12): BatchNorm2d(64, eps=1e-05, momentum=0.1, affine=True, track_running_stats=True)
    (13): Conv2d(64, 64, kernel_size=(3, 3), stride=(1, 1), padding=same)
    (14): LeakyReLU(negative_slope=0.01)
    (15): BatchNorm2d(64, eps=1e-05, momentum=0.1, affine=True, track_running_stats=True)
    (16): Conv2d(64, 64, kernel_size=(3, 3), stride=(1, 1), padding=same)
    (17): LeakyReLU(negative_slope=0.01)
    (18): BatchNorm2d(64, eps=1e-05, momentum=0.1, affine=True, track_running_stats=True)
    (19): Conv2d(64, 64, kernel_size=(3, 3), stride=(1, 1), padding=same)
    (20): MaxPool2d(kernel_size=2, stride=2, padding=0, dilation=1, ceil_mode=False)
    (21): LeakyReLU(negative_slope=0.01)
    (22): BatchNorm2d(64, eps=1e-05, momentum=0.1, affine=True, track_running_stats=True)
    (23): Conv2d(64, 256, kernel_size=(3, 3), stride=(1, 1), padding=same)
    (24): LeakyReLU(negative_slope=0.01)
    (25): BatchNorm2d(256, eps=1e-05, momentum=0.1, affine=True, track_running_stats=True)
    (26): Conv2d(256, 256, kernel_size=(3, 3), stride=(1, 1), padding=same)
    (27): LeakyReLU(negative_slope=0.01)
    (28): BatchNorm2d(256, eps=1e-05, momentum=0.1, affine=True, track_running_stats=True)
    (29): Conv2d(256, 256, kernel_size=(3, 3), stride=(1, 1), padding=same)
    (30): LeakyReLU(negative_slope=0.01)
    (31): BatchNorm2d(256, eps=1e-05, momentum=0.1, affine=True, track_running_stats=True)
    (32): Conv2d(256, 256, kernel_size=(3, 3), stride=(1, 1), padding=same)
    (33): LeakyReLU(negative_slope=0.01)
    (34): BatchNorm2d(256, eps=1e-05, momentum=0.1, affine=True, track_running_stats=True)
    (35): Conv2d(256, 256, kernel_size=(3, 3), stride=(1, 1), padding=same)
    (36): LeakyReLU(negative_slope=0.01)
    (37): BatchNorm2d(256, eps=1e-05, momentum=0.1, affine=True, track_running_stats=True)
    (38): Conv2d(256, 64, kernel_size=(3, 3), stride=(1, 1), padding=same)
    (39): MaxPool2d(kernel_size=2, stride=2, padding=0, dilation=1, ceil_mode=False)
    (40): LeakyReLU(negative_slope=0.01)
    (41): BatchNorm2d(64, eps=1e-05, momentum=0.1, affine=True, track_running_stats=True)
  )
  (dense-way0): Sequential(
    (0): Dropout(p=0.5, inplace=False)
    (1): Linear(in_features=3136, out_features=1024, bias=True)
    (2): LeakyReLU(negative_slope=0.01)
    (3): BatchNorm1d(1024, eps=1e-05, momentum=0.1, affine=True, track_running_stats=True)
    (4): Dropout(p=0.5, inplace=False)
    (5): Linear(in_features=1024, out_features=1024, bias=True)
    (6): LeakyReLU(negative_slope=0.01)
    (7): BatchNorm1d(1024, eps=1e-05, momentum=0.1, affine=True, track_running_stats=True)
  )
)
Device used for training: cuda:0
Size of training set: 24000
Size of validation set: 6000
---1 EPOCHS FINISHED---
Plugin messages for epoch 1:
TRAIN: 0.04620833333333333	VAL: 0.042833333333333334
---2 EPOCHS FINISHED---
Plugin messages for epoch 2:
TRAIN: 0.4362916666666667	VAL: 0.4125
---3 EPOCHS FINISHED---
Plugin messages for epoch 3:
…
