Model Summary:
AlexNet(
  (last_layer): Linear(in_features=1024, out_features=36, bias=True)
  (conv-way0): Sequential(
    (0): Conv2d(1, 16, kernel_size=(3, 3), stride=(1, 1), padding=same)
    (1): MaxPool2d(kernel_size=2, stride=2, padding=0, dilation=1, ceil_mode=False)
    (2): LeakyReLU(negative_slope=0.01)
    (3): BatchNorm2d(16, eps=1e-05, momentum=0.1, affine=True, track_running_stats=True)
    (4): Conv2d(16, 64, kernel_size=(3, 3), stride=(1, 1), padding=same)
    (5): MaxPool2d(kernel_size=2, stride=2, padding=0, dilation=1, ceil_mode=False)
    (6): LeakyReLU(negative_slope=0.01)
    (7): BatchNorm2d(64, eps=1e-05, momentum=0.1, affine=True, track_running_stats=True)
    (8): Conv2d(64, 256, kernel_size=(3, 3), stride=(1, 1), padding=same)
    (9): LeakyReLU(negative_slope=0.01)
    (10): BatchNorm2d(256, eps=1e-05, momentum=0.1, affine=True, track_running_stats=True)
    (11): Conv2d(256, 256, kernel_size=(3, 3), stride=(1, 1), padding=same)
    (12): LeakyReLU(negative_slope=0.01)
    (13): BatchNorm2d(256, eps=1e-05, momentum=0.1, affine=True, track_running_stats=True)
    (14): Conv2d(256, 256, kernel_size=(3, 3), stride=(1, 1), padding=same)
    (15): LeakyReLU(negative_slope=0.01)
    (16): BatchNorm2d(256, eps=1e-05, momentum=0.1, affine=True, track_running_stats=True)
    (17): Conv2d(256, 64, kernel_size=(3, 3), stride=(1, 1), padding=same)
    (18): MaxPool2d(kernel_size=2, stride=2, padding=0, dilation=1, ceil_mode=False)
    (19): LeakyReLU(negative_slope=0.01)
    (20): BatchNorm2d(64, eps=1e-05, momentum=0.1, affine=True, track_running_stats=True)
  )
  (dense-way0): Sequential(
    (0): Dropout(p=0.5, inplace=False)
    (1): Linear(in_features=3136, out_features=1024, bias=True)
    (2): LeakyReLU(negative_slope=0.01)
    (3): BatchNorm1d(1024, eps=1e-05, momentum=0.1, affine=True, track_running_stats=True)
    (4): Dropout(p=0.5, inplace=False)
    (5): Linear(in_features=1024, out_features=1024, bias=True)
    (6): LeakyReLU(negative_slope=0.01)
    (7): BatchNorm1d(1024, eps=1e-05, momentum=0.1, affine=True, track_running_stats=True)
  )
)
Device used for training: cuda:0
Size of training set: 24000
Size of validation set: 6000
---1 EPOCHS FINISHED---
Plugin messages for epoch 1:
TRAIN: 0.06695833333333333	VAL: 0.06216666666666667
---2 EPOCHS FINISHED---
Plugin messages for epoch 2:
TRAIN: 0.40658333333333335	VAL: 0.37483333333333335
---3 EPOCHS FINISHED---
Plugin messages for epoch 3:
…
---25 EPOCHS FINISHED---
Plugin messages for epoch 25:
TRAIN: 0.9982592592592593	VAL: 0.933
---26 EPOCHS FINISHED---
Plugin messages for epoch 26:
TRAIN: 0.9978518518518519	VAL: 0.933
---27 EPOCHS FINISHED---
Plugin messages for epoch 27:
TRAIN: 0.9994444444444445	VAL: 0.9343333333333333
---28 EPOCHS FINISHED---
Plugin messages for epoch 28:
TRAIN: 0.999	VAL: 0.9366666666666666
---29 EPOCHS FINISHED---
Plugin messages for epoch 29:
TRAIN: 0.9987777777777778	VAL: 0.94
---30 EPOCHS FINISHED---
Plugin messages for epoch 30:
TRAIN: 0.9994074074074074	VAL: 0.9403333333333334
Model Summary:
AlexNet(
  (last_layer): Linear(in_features=1024, out_features=36, bias=True)
  (conv1_way0): Sequential(
    (0): Conv2d(1, 16, kernel_size=(3, 3), stride=(1, 1), padding=same)
    (1): MaxPool2d(kernel_size=2, stride=2, padding=0, dilation=1, ceil_mode=False)
    (2): LeakyReLU(negative_slope=0.01)
    (3): BatchNorm2d(16, eps=1e-05, momentum=0.1, affine=True, track_running_stats=True)
    (4): Conv2d(16, 64, kernel_size=(3, 3), stride=(1, 1), padding=same)
    (5): MaxPool2d(kernel_size=2, stride=2, padding=0, dilation=1, ceil_mode=False)
    (6): LeakyReLU(negative_slope=0.01)
    (7): BatchNorm2d(64, eps=1e-05, momentum=0.1, affine=True, track_running_stats=True)
  )
  (conv2_way0): Sequential(
    (0): Conv2d(64, 256, kernel_size=(3, 3), stride=(1, 1), padding=same)
    (1): LeakyReLU(negative_slope=0.01)
    (2): BatchNorm2d(256, eps=1e-05, momentum=0.1, affine=True, track_running_stats=True)
    (3): Conv2d(256, 256, kernel_size=(3, 3), stride=(1, 1), padding=same)
    (4): LeakyReLU(negative_slope=0.01)
    (5): BatchNorm2d(256, eps=1e-05, momentum=0.1, affine=True, track_running_stats=True)
    (6): Conv2d(256, 256, kernel_size=(3, 3), stride=(1, 1), padding=same)
    (7): LeakyReLU(negative_slope=0.01)
    (8): BatchNorm2d(256, eps=1e-05, momentum=0.1, affine=True, track_running_stats=True)
    (9): Conv2d(256, 64, kernel_size=(3, 3), stride=(1, 1), padding=same)
    (10): MaxPool2d(kernel_size=2, stride=2, padding=0, dilation=1, ceil_mode=False)
    (11): LeakyReLU(negative_slope=0.01)
    (12): BatchNorm2d(64, eps=1e-05, momentum=0.1, affine=True, track_running_stats=True)
  )
  (dense1_way0): Sequential(
    (0): Dropout(p=0.5, inplace=False)
    (1): Linear(in_features=3136, out_features=1024, bias=True)
    (2): LeakyReLU(negative_slope=0.01)
    (3): BatchNorm1d(1024, eps=1e-05, momentum=0.1, affine=True, track_running_stats=True)
    (4): Dropout(p=0.5, inplace=False)
    (5): Linear(in_features=1024, out_features=1024, bias=True)
    (6): LeakyReLU(negative_slope=0.01)
    (7): BatchNorm1d(1024, eps=1e-05, momentum=0.1, affine=True, track_running_stats=True)
  )
  (dense2_way0): Sequential(
    (0): Dropout(p=0.5, inplace=False)
    (1): Linear(in_features=1024, out_features=1024, bias=True)
    (2): LeakyReLU(negative_slope=0.01)
    (3): BatchNorm1d(1024, eps=1e-05, momentum=0.1, affine=True, track_running_stats=True)
    (4): Dropout(p=0.5, inplace=False)
    (5): Linear(in_features=1024, out_features=1024, bias=True)
    (6): LeakyReLU(negative_slope=0.01)
    (7): BatchNorm1d(1024, eps=1e-05, momentum=0.1, affine=True, track_running_stats=True)
  )
)
Device used for training: cuda:0
Size of training set: 27000
Size of validation set: 3000
---1 EPOCHS FINISHED---
Plugin messages for epoch 1:
TRAIN: 0.043222222222222224	VAL: 0.04033333333333333
---2 EPOCHS FINISHED---
Plugin messages for epoch 2:
TRAIN: 0.14255555555555555	VAL: 0.13733333333333334
Model Summary:
AlexNet(
  (last_layer): Linear(in_features=1024, out_features=36, bias=True)
  (conv1_way0): Sequential(
    (0): Conv2d(1, 16, kernel_size=(3, 3), stride=(1, 1), padding=same)
    (1): MaxPool2d(kernel_size=2, stride=2, padding=0, dilation=1, ceil_mode=False)
    (2): LeakyReLU(negative_slope=0.01)
    (3): BatchNorm2d(16, eps=1e-05, momentum=0.1, affine=True, track_running_stats=True)
    (4): Conv2d(16, 64, kernel_size=(3, 3), stride=(1, 1), padding=same)
    (5): MaxPool2d(kernel_size=2, stride=2, padding=0, dilation=1, ceil_mode=False)
    (6): LeakyReLU(negative_slope=0.01)
    (7): BatchNorm2d(64, eps=1e-05, momentum=0.1, affine=True, track_running_stats=True)
  )
  (conv2_way0): Sequential(
    (0): Conv2d(64, 256, kernel_size=(3, 3), stride=(1, 1), padding=same)
    (1): LeakyReLU(negative_slope=0.01)
    (2): BatchNorm2d(256, eps=1e-05, momentum=0.1, affine=True, track_running_stats=True)
    (3): Conv2d(256, 256, kernel_size=(3, 3), stride=(1, 1), padding=same)
    (4): LeakyReLU(negative_slope=0.01)
    (5): BatchNorm2d(256, eps=1e-05, momentum=0.1, affine=True, track_running_stats=True)
    (6): Conv2d(256, 256, kernel_size=(3, 3), stride=(1, 1), padding=same)
    (7): LeakyReLU(negative_slope=0.01)
    (8): BatchNorm2d(256, eps=1e-05, momentum=0.1, affine=True, track_running_stats=True)
    (9): Conv2d(256, 64, kernel_size=(3, 3), stride=(1, 1), padding=same)
    (10): MaxPool2d(kernel_size=2, stride=2, padding=0, dilation=1, ceil_mode=False)
    (11): LeakyReLU(negative_slope=0.01)
    (12): BatchNorm2d(64, eps=1e-05, momentum=0.1, affine=True, track_running_stats=True)
  )
  (dense1_way0): Sequential(
    (0): Dropout(p=0.5, inplace=False)
    (1): Linear(in_features=3136, out_features=1024, bias=True)
    (2): LeakyReLU(negative_slope=0.01)
    (3): BatchNorm1d(1024, eps=1e-05, momentum=0.1, affine=True, track_running_stats=True)
  )
  (dense2_way0): Sequential(
    (0): Dropout(p=0.5, inplace=False)
    (1): Linear(in_features=1024, out_features=1024, bias=True)
    (2): LeakyReLU(negative_slope=0.01)
    (3): BatchNorm1d(1024, eps=1e-05, momentum=0.1, affine=True, track_running_stats=True)
  )
)
Device used for training: cuda:0
Size of training set: 27000
Size of validation set: 3000
---1 EPOCHS FINISHED---
Plugin messages for epoch 1:
TRAIN: 0.11548148148148148	VAL: 0.106
---2 EPOCHS FINISHED---
Plugin messages for epoch 2:
TRAIN: 0.5076666666666667	VAL: 0.47833333333333333
---3 EPOCHS FINISHED---
Plugin messages for epoch 3:
TRAIN: 0.8104444444444444	VAL: 0.7513333333333333
---4 EPOCHS FINISHED---
Plugin messages for epoch 4:
TRAIN: 0.9028148148148148	VAL: 0.8536666666666667
Model Summary:
AlexNet(
  (last_layer): Linear(in_features=1024, out_features=36, bias=True)
  (conv1_way0): Sequential(
    (0): Conv2d(1, 16, kernel_size=(3, 3), stride=(1, 1), padding=same)
    (1): MaxPool2d(kernel_size=2, stride=2, padding=0, dilation=1, ceil_mode=False)
    (2): LeakyReLU(negative_slope=0.01)
    (3): BatchNorm2d(16, eps=1e-05, momentum=0.1, affine=True, track_running_stats=True)
    (4): Conv2d(16, 64, kernel_size=(3, 3), stride=(1, 1), padding=same)
    (5): MaxPool2d(kernel_size=2, stride=2, padding=0, dilation=1, ceil_mode=False)
    (6): LeakyReLU(negative_slope=0.01)
    (7): BatchNorm2d(64, eps=1e-05, momentum=0.1, affine=True, track_running_stats=True)
  )
  (conv2_way0): Sequential(
    (0): Conv2d(64, 256, kernel_size=(3, 3), stride=(1, 1), padding=same)
    (1): LeakyReLU(negative_slope=0.01)
    (2): BatchNorm2d(256, eps=1e-05, momentum=0.1, affine=True, track_running_stats=True)
    (3): Conv2d(256, 256, kernel_size=(3, 3), stride=(1, 1), padding=same)
    (4): LeakyReLU(negative_slope=0.01)
    (5): BatchNorm2d(256, eps=1e-05, momentum=0.1, affine=True, track_running_stats=True)
    (6): Conv2d(256, 256, kernel_size=(3, 3), stride=(1, 1), padding=same)
    (7): LeakyReLU(negative_slope=0.01)
    (8): BatchNorm2d(256, eps=1e-05, momentum=0.1, affine=True, track_running_stats=True)
    (9): Conv2d(256, 64, kernel_size=(3, 3), stride=(1, 1), padding=same)
    (10): MaxPool2d(kernel_size=2, stride=2, padding=0, dilation=1, ceil_mode=False)
    (11): LeakyReLU(negative_slope=0.01)
    (12): BatchNorm2d(64, eps=1e-05, momentum=0.1, affine=True, track_running_stats=True)
  )
  (dense1_way0): Sequential(
    (0): Dropout(p=0.5, inplace=False)
    (1): Linear(in_features=3136, out_features=1024, bias=True)
    (2): LeakyReLU(negative_slope=0.01)
    (3): BatchNorm1d(1024, eps=1e-05, momentum=0.1, affine=True, track_running_stats=True)
  )
  (dense2_way0): Sequential(
    (0): Dropout(p=0.5, inplace=False)
    (1): Linear(in_features=1024, out_features=1024, bias=True)
    (2): LeakyReLU(negative_slope=0.01)
    (3): BatchNorm1d(1024, eps=1e-05, momentum=0.1, affine=True, track_running_stats=True)
  )
)
Device used for training: cuda:0
Size of training set: 27000
Size of validation set: 3000
---1 EPOCHS FINISHED---
Plugin messages for epoch 1:
TRAIN: 0.09007407407407407	VAL: 0.08566666666666667
---2 EPOCHS FINISHED---
Plugin messages for epoch 2:
TRAIN: 0.48644444444444446	VAL: 0.44066666666666665
---3 EPOCHS FINISHED---
Plugin messages for epoch 3:
TRAIN: 0.791	VAL: 0.7443333333333333
---4 EPOCHS FINISHED---
Plugin messages for epoch 4:
TRAIN: 0.8932222222222223	VAL: 0.8523333333333334
---5 EPOCHS FINISHED---
Plugin messages for epoch 5:
TRAIN: 0.9325925925925926	VAL: 0.88
---6 EPOCHS FINISHED---
Plugin messages for epoch 6:
TRAIN: 0.9508518518518518	VAL: 0.885
---7 EPOCHS FINISHED---
Plugin messages for epoch 7:
TRAIN: 0.9746666666666667	VAL: 0.9073333333333333
Model Summary:
AlexNet(
  (last_layer): Linear(in_features=1024, out_features=36, bias=True)
  (conv1_way0): Sequential(
    (0): Conv2d(1, 16, kernel_size=(3, 3), stride=(1, 1), padding=same)
    (1): MaxPool2d(kernel_size=2, stride=2, padding=0, dilation=1, ceil_mode=False)
    (2): LeakyReLU(negative_slope=0.01)
    (3): BatchNorm2d(16, eps=1e-05, momentum=0.1, affine=True, track_running_stats=True)
    (4): Conv2d(16, 64, kernel_size=(3, 3), stride=(1, 1), padding=same)
    (5): MaxPool2d(kernel_size=2, stride=2, padding=0, dilation=1, ceil_mode=False)
    (6): LeakyReLU(negative_slope=0.01)
    (7): BatchNorm2d(64, eps=1e-05, momentum=0.1, affine=True, track_running_stats=True)
  )
  (conv2_way0): Sequential(
    (0): Conv2d(64, 256, kernel_size=(3, 3), stride=(1, 1), padding=same)
    (1): LeakyReLU(negative_slope=0.01)
    (2): BatchNorm2d(256, eps=1e-05, momentum=0.1, affine=True, track_running_stats=True)
    (3): Conv2d(256, 256, kernel_size=(3, 3), stride=(1, 1), padding=same)
    (4): LeakyReLU(negative_slope=0.01)
    (5): BatchNorm2d(256, eps=1e-05, momentum=0.1, affine=True, track_running_stats=True)
    (6): Conv2d(256, 256, kernel_size=(3, 3), stride=(1, 1), padding=same)
    (7): LeakyReLU(negative_slope=0.01)
    (8): BatchNorm2d(256, eps=1e-05, momentum=0.1, affine=True, track_running_stats=True)
    (9): Conv2d(256, 64, kernel_size=(3, 3), stride=(1, 1), padding=same)
    (10): MaxPool2d(kernel_size=2, stride=2, padding=0, dilation=1, ceil_mode=False)
    (11): LeakyReLU(negative_slope=0.01)
    (12): BatchNorm2d(64, eps=1e-05, momentum=0.1, affine=True, track_running_stats=True)
  )
  (dense1_way0): Sequential(
    (0): Dropout(p=0.5, inplace=False)
    (1): Linear(in_features=3136, out_features=1024, bias=True)
    (2): LeakyReLU(negative_slope=0.01)
    (3): BatchNorm1d(1024, eps=1e-05, momentum=0.1, affine=True, track_running_stats=True)
  )
  (dense2_way0): Sequential(
    (0): Dropout(p=0.5, inplace=False)
    (1): Linear(in_features=1024, out_features=1024, bias=True)
    (2): LeakyReLU(negative_slope=0.01)
    (3): BatchNorm1d(1024, eps=1e-05, momentum=0.1, affine=True, track_running_stats=True)
  )
)
Device used for training: cuda:0
Size of training set: 27000
Size of validation set: 3000
---1 EPOCHS FINISHED---
Plugin messages for epoch 1:
TRAIN: 0.117	VAL: 0.10733333333333334
---2 EPOCHS FINISHED---
Plugin messages for epoch 2:
TRAIN: 0.6184814814814815	VAL: 0.581
---3 EPOCHS FINISHED---
Plugin messages for epoch 3:
TRAIN: 0.8258888888888889	VAL: 0.7786666666666666
…
