Model Summary:
AlexNet(
  (last_layer): Linear(in_features=2048, out_features=36, bias=True)
  (conv1_way0): Sequential(
    (0): Conv2d(1, 16, kernel_size=(3, 3), stride=(1, 1), padding=same)
    (1): MaxPool2d(kernel_size=2, stride=2, padding=0, dilation=1, ceil_mode=False)
    (2): LeakyReLU(negative_slope=0.01)
    (3): BatchNorm2d(16, eps=1e-05, momentum=0.1, affine=True, track_running_stats=True)
    (4): Conv2d(16, 64, kernel_size=(3, 3), stride=(1, 1), padding=same)
    (5): MaxPool2d(kernel_size=2, stride=2, padding=0, dilation=1, ceil_mode=False)
    (6): LeakyReLU(negative_slope=0.01)
    (7): BatchNorm2d(64, eps=1e-05, momentum=0.1, affine=True, track_running_stats=True)
  )
  (conv2_way0): Sequential(
    (0): Conv2d(128, 256, kernel_size=(3, 3), stride=(1, 1), padding=same)
    (1): LeakyReLU(negative_slope=0.01)
    (2): BatchNorm2d(256, eps=1e-05, momentum=0.1, affine=True, track_running_stats=True)
    (3): Conv2d(256, 256, kernel_size=(3, 3), stride=(1, 1), padding=same)
    (4): LeakyReLU(negative_slope=0.01)
    (5): BatchNorm2d(256, eps=1e-05, momentum=0.1, affine=True, track_running_stats=True)
    (6): Conv2d(256, 256, kernel_size=(3, 3), stride=(1, 1), padding=same)
    (7): LeakyReLU(negative_slope=0.01)
    (8): BatchNorm2d(256, eps=1e-05, momentum=0.1, affine=True, track_running_stats=True)
    (9): Conv2d(256, 64, kernel_size=(3, 3), stride=(1, 1), padding=same)
    (10): MaxPool2d(kernel_size=2, stride=2, padding=0, dilation=1, ceil_mode=False)
    (11): LeakyReLU(negative_slope=0.01)
    (12): BatchNorm2d(64, eps=1e-05, momentum=0.1, affine=True, track_running_stats=True)
  )
  (dense1_way0): Sequential(
    (0): Dropout(p=0.5, inplace=False)
    (1): Linear(in_features=6272, out_features=1024, bias=True)
    (2): LeakyReLU(negative_slope=0.01)
    (3): BatchNorm1d(1024, eps=1e-05, momentum=0.1, affine=True, track_running_stats=True)
  )
  (dense2_way0): Sequential(
    (0): Dropout(p=0.5, inplace=False)
    (1): Linear(in_features=2048, out_features=1024, bias=True)
    (2): LeakyReLU(negative_slope=0.01)
    (3): BatchNorm1d(1024, eps=1e-05, momentum=0.1, affine=True, track_running_stats=True)
  )
  (conv1_way1): Sequential(
    (0): Conv2d(1, 16, kernel_size=(3, 3), stride=(1, 1), padding=same)
    (1): MaxPool2d(kernel_size=2, stride=2, padding=0, dilation=1, ceil_mode=False)
    (2): LeakyReLU(negative_slope=0.01)
    (3): BatchNorm2d(16, eps=1e-05, momentum=0.1, affine=True, track_running_stats=True)
    (4): Conv2d(16, 64, kernel_size=(3, 3), stride=(1, 1), padding=same)
    (5): MaxPool2d(kernel_size=2, stride=2, padding=0, dilation=1, ceil_mode=False)
    (6): LeakyReLU(negative_slope=0.01)
    (7): BatchNorm2d(64, eps=1e-05, momentum=0.1, affine=True, track_running_stats=True)
  )
  (conv2_way1): Sequential(
    (0): Conv2d(128, 256, kernel_size=(3, 3), stride=(1, 1), padding=same)
    (1): LeakyReLU(negative_slope=0.01)
    (2): BatchNorm2d(256, eps=1e-05, momentum=0.1, affine=True, track_running_stats=True)
    (3): Conv2d(256, 256, kernel_size=(3, 3), stride=(1, 1), padding=same)
    (4): LeakyReLU(negative_slope=0.01)
    (5): BatchNorm2d(256, eps=1e-05, momentum=0.1, affine=True, track_running_stats=True)
    (6): Conv2d(256, 256, kernel_size=(3, 3), stride=(1, 1), padding=same)
    (7): LeakyReLU(negative_slope=0.01)
    (8): BatchNorm2d(256, eps=1e-05, momentum=0.1, affine=True, track_running_stats=True)
    (9): Conv2d(256, 64, kernel_size=(3, 3), stride=(1, 1), padding=same)
    (10): MaxPool2d(kernel_size=2, stride=2, padding=0, dilation=1, ceil_mode=False)
    (11): LeakyReLU(negative_slope=0.01)
    (12): BatchNorm2d(64, eps=1e-05, momentum=0.1, affine=True, track_running_stats=True)
  )
  (dense1_way1): Sequential(
    (0): Dropout(p=0.5, inplace=False)
    (1): Linear(in_features=6272, out_features=1024, bias=True)
    (2): LeakyReLU(negative_slope=0.01)
    (3): BatchNorm1d(1024, eps=1e-05, momentum=0.1, affine=True, track_running_stats=True)
  )
  (dense2_way1): Sequential(
    (0): Dropout(p=0.5, inplace=False)
    (1): Linear(in_features=2048, out_features=1024, bias=True)
    (2): LeakyReLU(negative_slope=0.01)
    (3): BatchNorm1d(1024, eps=1e-05, momentum=0.1, affine=True, track_running_stats=True)
  )
)
Device used for training: cuda:0
Size of training set: 27000
Size of validation set: 3000
---1 EPOCHS FINISHED---
Plugin messages for epoch 1:
TRAIN: 0.11351851851851852	VAL: 0.102
Model Summary:
AlexNet(
  (last_layer): Linear(in_features=2048, out_features=36, bias=True)
  (conv1_way0): Sequential(
    (0): Conv2d(1, 16, kernel_size=(3, 3), stride=(1, 1), padding=same)
    (1): MaxPool2d(kernel_size=2, stride=2, padding=0, dilation=1, ceil_mode=False)
    (2): LeakyReLU(negative_slope=0.01)
    (3): BatchNorm2d(16, eps=1e-05, momentum=0.1, affine=True, track_running_stats=True)
    (4): Conv2d(16, 64, kernel_size=(3, 3), stride=(1, 1), padding=same)
    (5): MaxPool2d(kernel_size=2, stride=2, padding=0, dilation=1, ceil_mode=False)
    (6): LeakyReLU(negative_slope=0.01)
    (7): BatchNorm2d(64, eps=1e-05, momentum=0.1, affine=True, track_running_stats=True)
  )
  (conv2_way0): Sequential(
    (0): Conv2d(128, 256, kernel_size=(3, 3), stride=(1, 1), padding=same)
    (1): LeakyReLU(negative_slope=0.01)
    (2): BatchNorm2d(256, eps=1e-05, momentum=0.1, affine=True, track_running_stats=True)
    (3): Conv2d(256, 256, kernel_size=(3, 3), stride=(1, 1), padding=same)
    (4): LeakyReLU(negative_slope=0.01)
    (5): BatchNorm2d(256, eps=1e-05, momentum=0.1, affine=True, track_running_stats=True)
    (6): Conv2d(256, 256, kernel_size=(3, 3), stride=(1, 1), padding=same)
    (7): LeakyReLU(negative_slope=0.01)
    (8): BatchNorm2d(256, eps=1e-05, momentum=0.1, affine=True, track_running_stats=True)
    (9): Conv2d(256, 64, kernel_size=(3, 3), stride=(1, 1), padding=same)
    (10): MaxPool2d(kernel_size=2, stride=2, padding=0, dilation=1, ceil_mode=False)
    (11): LeakyReLU(negative_slope=0.01)
    (12): BatchNorm2d(64, eps=1e-05, momentum=0.1, affine=True, track_running_stats=True)
  )
  (dense1_way0): Sequential(
    (0): Dropout(p=0.5, inplace=False)
    (1): Linear(in_features=6272, out_features=1024, bias=True)
    (2): LeakyReLU(negative_slope=0.01)
    (3): BatchNorm1d(1024, eps=1e-05, momentum=0.1, affine=True, track_running_stats=True)
  )
  (dense2_way0): Sequential(
    (0): Dropout(p=0.5, inplace=False)
    (1): Linear(in_features=2048, out_features=1024, bias=True)
    (2): LeakyReLU(negative_slope=0.01)
    (3): BatchNorm1d(1024, eps=1e-05, momentum=0.1, affine=True, track_running_stats=True)
  )
  (conv1_way1): Sequential(
    (0): Conv2d(1, 16, kernel_size=(3, 3), stride=(1, 1), padding=same)
    (1): MaxPool2d(kernel_size=2, stride=2, padding=0, dilation=1, ceil_mode=False)
    (2): LeakyReLU(negative_slope=0.01)
    (3): BatchNorm2d(16, eps=1e-05, momentum=0.1, affine=True, track_running_stats=True)
    (4): Conv2d(16, 64, kernel_size=(3, 3), stride=(1, 1), padding=same)
    (5): MaxPool2d(kernel_size=2, stride=2, padding=0, dilation=1, ceil_mode=False)
    (6): LeakyReLU(negative_slope=0.01)
    (7): BatchNorm2d(64, eps=1e-05, momentum=0.1, affine=True, track_running_stats=True)
  )
  (conv2_way1): Sequential(
    (0): Conv2d(128, 256, kernel_size=(3, 3), stride=(1, 1), padding=same)
    (1): LeakyReLU(negative_slope=0.01)
    (2): BatchNorm2d(256, eps=1e-05, momentum=0.1, affine=True, track_running_stats=True)
    (3): Conv2d(256, 256, kernel_size=(3, 3), stride=(1, 1), padding=same)
    (4): LeakyReLU(negative_slope=0.01)
    (5): BatchNorm2d(256, eps=1e-05, momentum=0.1, affine=True, track_running_stats=True)
    (6): Conv2d(256, 256, kernel_size=(3, 3), stride=(1, 1), padding=same)
    (7): LeakyReLU(negative_slope=0.01)
    (8): BatchNorm2d(256, eps=1e-05, momentum=0.1, affine=True, track_running_stats=True)
    (9): Conv2d(256, 64, kernel_size=(3, 3), stride=(1, 1), padding=same)
    (10): MaxPool2d(kernel_size=2, stride=2, padding=0, dilation=1, ceil_mode=False)
    (11): LeakyReLU(negative_slope=0.01)
    (12): BatchNorm2d(64, eps=1e-05, momentum=0.1, affine=True, track_running_stats=True)
  )
  (dense1_way1): Sequential(
    (0): Dropout(p=0.5, inplace=False)
    (1): Linear(in_features=6272, out_features=1024, bias=True)
    (2): LeakyReLU(negative_slope=0.01)
    (3): BatchNorm1d(1024, eps=1e-05, momentum=0.1, affine=True, track_running_stats=True)
  )
  (dense2_way1): Sequential(
    (0): Dropout(p=0.5, inplace=False)
    (1): Linear(in_features=2048, out_features=1024, bias=True)
    (2): LeakyReLU(negative_slope=0.01)
    (3): BatchNorm1d(1024, eps=1e-05, momentum=0.1, affine=True, track_running_stats=True)
  )
)
Device used for training: cuda:0
Size of training set: 27000
Size of validation set: 3000
---1 EPOCHS FINISHED---
Plugin messages for epoch 1:
TRAIN: 0.2598888888888889	VAL: 0.24266666666666667
---2 EPOCHS FINISHED---
Plugin messages for epoch 2:
TRAIN: 0.7163333333333334	VAL: 0.6756666666666666
---3 EPOCHS FINISHED---
Plugin messages for epoch 3:
…
