Model Summary:
AlexNet(
  (last_layer): Linear(in_features=1024, out_features=36, bias=True)
  (conv-way0): Sequential(
    (0): Conv2d(1, 16, kernel_size=(3, 3), stride=(1, 1), padding=same)
    (1): MaxPool2d(kernel_size=2, stride=2, padding=0, dilation=1, ceil_mode=False)
    (2): LeakyReLU(negative_slope=0.01)
    (3): BatchNorm2d(16, eps=1e-05, momentum=0.1, affine=True, track_running_stats=True)
    (4): Conv2d(16, 64, kernel_size=(3, 3), stride=(1, 1), padding=same)
    (5): LeakyReLU(negative_slope=0.01)
    (6): BatchNorm2d(64, eps=1e-05, momentum=0.1, affine=True, track_running_stats=True)
    (7): Conv2d(64, 64, kernel_size=(3, 3), stride=(1, 1), padding=same)
    (8): MaxPool2d(kernel_size=2, stride=2, padding=0, dilation=1, ceil_mode=False)
    (9): LeakyReLU(negative_slope=0.01)
    (10): BatchNorm2d(64, eps=1e-05, momentum=0.1, affine=True, track_running_stats=True)
    (11): Conv2d(64, 256, kernel_size=(3, 3), stride=(1, 1), padding=same)
    (12): LeakyReLU(negative_slope=0.01)
    (13): BatchNorm2d(256, eps=1e-05, momentum=0.1, affine=True, track_running_stats=True)
    (14): Conv2d(256, 256, kernel_size=(3, 3), stride=(1, 1), padding=same)
    (15): LeakyReLU(negative_slope=0.01)
    (16): BatchNorm2d(256, eps=1e-05, momentum=0.1, affine=True, track_running_stats=True)
    (17): Conv2d(256, 256, kernel_size=(3, 3), stride=(1, 1), padding=same)
    (18): LeakyReLU(negative_slope=0.01)
    (19): BatchNorm2d(256, eps=1e-05, momentum=0.1, affine=True, track_running_stats=True)
    (20): Conv2d(256, 64, kernel_size=(3, 3), stride=(1, 1), padding=same)
    (21): MaxPool2d(kernel_size=2, stride=2, padding=0, dilation=1, ceil_mode=False)
    (22): LeakyReLU(negative_slope=0.01)
    (23): BatchNorm2d(64, eps=1e-05, momentum=0.1, affine=True, track_running_stats=True)
  )
  (dense-way0): Sequential(
    (0): Dropout(p=0.5, inplace=False)
    (1): Linear(in_features=3136, out_features=1024, bias=True)
    (2): LeakyReLU(negative_slope=0.01)
    (3): BatchNorm1d(1024, eps=1e-05, momentum=0.1, affine=True, track_running_stats=True)
    (4): Dropout(p=0.5, inplace=False)
    (5): Linear(in_features=1024, out_features=1024, bias=True)
    (6): LeakyReLU(negative_slope=0.01)
    (7): BatchNorm1d(1024, eps=1e-05, momentum=0.1, affine=True, track_running_stats=True)
  )
)
Device used for training: cuda:0
Size of training set: 24000
Size of validation set: 6000
---1 EPOCHS FINISHED---
Plugin messages for epoch 1:
TRAIN: 0.08691666666666667	VAL: 0.07983333333333334
---2 EPOCHS FINISHED---
Plugin messages for epoch 2:
TRAIN: 0.4595	VAL: 0.4031666666666667
---3 EPOCHS FINISHED---
Plugin messages for epoch 3:
…
