Model Summary:
AlexNet(
  (last_layer): Linear(in_features=1024, out_features=36, bias=True)
  (conv1_way0): Sequential(
    (0): Conv2d(1, 16, kernel_size=(5, 5), stride=(1, 1), padding=same)
    (1): MaxPool2d(kernel_size=2, stride=2, padding=0, dilation=1, ceil_mode=False)
    (2): LeakyReLU(negative_slope=0.01)
    (3): BatchNorm2d(16, eps=1e-05, momentum=0.1, affine=True, track_running_stats=True)
    (4): LeakyReLU(negative_slope=0.01)
    (5): BatchNorm2d(16, eps=1e-05, momentum=0.1, affine=True, track_running_stats=True)
    (6): Conv2d(16, 16, kernel_size=(3, 3), stride=(1, 1), padding=same)
    (7): LeakyReLU(negative_slope=0.01)
    (8): BatchNorm2d(16, eps=1e-05, momentum=0.1, affine=True, track_running_stats=True)
    (9): Conv2d(16, 16, kernel_size=(3, 3), stride=(1, 1), padding=same)
    (10): MaxPool2d(kernel_size=2, stride=2, padding=0, dilation=1, ceil_mode=False)
    (11): LeakyReLU(negative_slope=0.01)
    (12): BatchNorm2d(16, eps=1e-05, momentum=0.1, affine=True, track_running_stats=True)
    (13): Conv2d(16, 64, kernel_size=(3, 3), stride=(1, 1), padding=same)
    (14): LeakyReLU(negative_slope=0.01)
    (15): BatchNorm2d(64, eps=1e-05, momentum=0.1, affine=True, track_running_stats=True)
    (16): Conv2d(64, 64, kernel_size=(3, 3), stride=(1, 1), padding=same)
    (17): LeakyReLU(negative_slope=0.01)
    (18): BatchNorm2d(64, eps=1e-05, momentum=0.1, affine=True, track_running_stats=True)
    (19): Conv2d(64, 64, kernel_size=(3, 3), stride=(1, 1), padding=same)
    (20): LeakyReLU(negative_slope=0.01)
    (21): BatchNorm2d(64, eps=1e-05, momentum=0.1, affine=True, track_running_stats=True)
    (22): Conv2d(64, 64, kernel_size=(3, 3), stride=(1, 1), padding=same)
    (23): MaxPool2d(kernel_size=2, stride=2, padding=0, dilation=1, ceil_mode=False)
    (24): LeakyReLU(negative_slope=0.01)
    (25): BatchNorm2d(64, eps=1e-05, momentum=0.1, affine=True, track_running_stats=True)
  )
  (conv2_way0): Sequential(
    (0): Conv2d(64, 256, kernel_size=(3, 3), stride=(1, 1), padding=same)
    (1): LeakyReLU(negative_slope=0.01)
    (2): BatchNorm2d(256, eps=1e-05, momentum=0.1, affine=True, track_running_stats=True)
    (3): Conv2d(256, 256, kernel_size=(3, 3), stride=(1, 1), padding=same)
    (4): LeakyReLU(negative_slope=0.01)
    (5): BatchNorm2d(256, eps=1e-05, momentum=0.1, affine=True, track_running_stats=True)
    (6): Conv2d(256, 256, kernel_size=(3, 3), stride=(1, 1), padding=same)
    (7): LeakyReLU(negative_slope=0.01)
    (8): BatchNorm2d(256, eps=1e-05, momentum=0.1, affine=True, track_running_stats=True)
    (9): Conv2d(256, 256, kernel_size=(3, 3), stride=(1, 1), padding=same)
    (10): LeakyReLU(negative_slope=0.01)
    (11): BatchNorm2d(256, eps=1e-05, momentum=0.1, affine=True, track_running_stats=True)
    (12): Conv2d(256, 64, kernel_size=(3, 3), stride=(1, 1), padding=same)
    (13): MaxPool2d(kernel_size=2, stride=2, padding=0, dilation=1, ceil_mode=False)
    (14): LeakyReLU(negative_slope=0.01)
    (15): BatchNorm2d(64, eps=1e-05, momentum=0.1, affine=True, track_running_stats=True)
  )
  (dense1_way0): Sequential(
    (0): Dropout(p=0.5, inplace=False)
    (1): Linear(in_features=3136, out_features=1024, bias=True)
    (2): LeakyReLU(negative_slope=0.01)
    (3): BatchNorm1d(1024, eps=1e-05, momentum=0.1, affine=True, track_running_stats=True)
  )
  (dense2_way0): Sequential(
    (0): Dropout(p=0.5, inplace=False)
    (1): Linear(in_features=1024, out_features=1024, bias=True)
    (2): LeakyReLU(negative_slope=0.01)
    (3): BatchNorm1d(1024, eps=1e-05, momentum=0.1, affine=True, track_running_stats=True)
  )
)
Device used for training: cuda:0
Size of training set: 189000
Size of validation set: 3000
---1 EPOCHS FINISHED---
Plugin messages for epoch 1:
TRAIN: 0.874021164021164	VAL: 0.897
---2 EPOCHS FINISHED---
Plugin messages for epoch 2:
TRAIN: 0.9394973544973545	VAL: 0.9323333333333333
---3 EPOCHS FINISHED---
Plugin messages for epoch 3:
…
